…
2020-08-06 10:52:56.730280: W tensorflow/core/common_runtime/gpu/gpu_bfc_allocator.cc:39] Overriding allow_growth setting because the TF_FORCE_GPU_ALLOW_GROWTH environment variable is set. Original config value was 0.
2020-08-06 10:52:56.733755: I tensorflow/core/common_runtime/gpu/gpu_device.cc:1241] Created TensorFlow device (/job:localhost/replica:0/task:0/device:GPU:0 with 4625 MB memory) -> physical GPU (device: 0, name: GeForce GTX 1660 Ti, pci bus id: 0000:01:00.0, compute capability: 7.5)
Model: "sequential_1"
_________________________________________________________________
Layer (type)                 Output Shape              Param #
=================================================================
conv2d_1 (Conv2D)            (None, 30, 30, 32)        320
_________________________________________________________________
activation_1 (Activation)    (None, 30, 30, 32)        0
_________________________________________________________________
max_pooling2d_1 (MaxPooling2 (None, 15, 15, 32)        0
_________________________________________________________________
conv2d_2 (Conv2D)            (None, 13, 13, 64)        18496
_________________________________________________________________
activation_2 (Activation)    (None, 13, 13, 64)        0
_________________________________________________________________
max_pooling2d_2 (MaxPooling2 (None, 6, 6, 64)          0
_________________________________________________________________
flatten_1 (Flatten)          (None, 2304)              0
_________________________________________________________________
dense_1 (Dense)              (None, 64)                147520
_________________________________________________________________
activation_3 (Activation)    (None, 64)                0
_________________________________________________________________
dropout_1 (Dropout)          (None, 64)                0
_________________________________________________________________
dense_2 (Dense)              (None, 3)                 195
_________________________________________________________________
activation_4 (Activation)    (None, 3)                 0
=================================================================
Total params: 166,531
Trainable params: 166,531
Non-trainable params: 0
_________________________________________________________________
2020-08-06 10:52:56.882400: I tensorflow/stream_executor/platform/default/dso_loader.cc:44] Successfully opened dynamic library cublas64_10.dll
2020-08-06 10:52:57.173973: I tensorflow/stream_executor/platform/default/dso_loader.cc:44] Successfully opened dynamic library cudnn64_7.dll
…
